…
21-06-29 20:25:23.545 - INFO: Dataset [LQGTRNDataset - SIDD] is created.
21-06-29 20:25:23.546 - INFO: Number of train images: 30,608, iters: 1,094
21-06-29 20:25:23.546 - INFO: Total epochs needed: 549 for iters 600,000
21-06-29 20:25:23.581 - INFO: Dataset [LQGTRNDataset - SIDD_val] is created.
21-06-29 20:25:23.581 - INFO: Number of val images in [SIDD_val]: 1280
21-06-29 20:25:28.421 - INFO: Network G structure: DataParallel - InvNet, with parameters: 2,641,200
21-06-29 20:25:28.421 - INFO: InvNet(
  (operations): ModuleList(
    (0): HaarDownsampling()
    (1): InvBlockExp(
      (F): ResBlock(
        (conv1): Conv2d(9, 64, kernel_size=(3, 3), stride=(1, 1), padding=(1, 1))
        (relu1): LeakyReLU(negative_slope=0.2, inplace=True)
        (conv2): Conv2d(64, 64, kernel_size=(3, 3), stride=(1, 1), padding=(1, 1))
        (conv3): Conv2d(73, 3, kernel_size=(3, 3), stride=(1, 1), padding=(1, 1))
      )
      (G): ResBlock(
        (conv1): Conv2d(3, 64, kernel_size=(3, 3), stride=(1, 1), padding=(1, 1))
        (relu1): LeakyReLU(negative_slope=0.2, inplace=True)
        (conv2): Conv2d(64, 64, kernel_size=(3, 3), stride=(1, 1), padding=(1, 1))
        (conv3): Conv2d(67, 9, kernel_size=(3, 3), stride=(1, 1), padding=(1, 1))
      )
      (H): ResBlock(
        (conv1): Conv2d(3, 64, kernel_size=(3, 3), stride=(1, 1), padding=(1, 1))
        (relu1): LeakyReLU(negative_slope=0.2, inplace=True)
        (conv2): Conv2d(64, 64, kernel_size=(3, 3), stride=(1, 1), padding=(1, 1))
        (conv3): Conv2d(67, 9, kernel_size=(3, 3), stride=(1, 1), padding=(1, 1))
      )
    )
    (2): InvBlockExp(
      (F): ResBlock(
        (conv1): Conv2d(9, 64, kernel_size=(3, 3), stride=(1, 1), padding=(1, 1))
        (relu1): LeakyReLU(negative_slope=0.2, inplace=True)
        (conv2): Conv2d(64, 64, kernel_size=(3, 3), stride=(1, 1), padding=(1, 1))
        (conv3): Conv2d(73, 3, kernel_size=(3, 3), stride=(1, 1), padding=(1, 1))
      )
      (G): ResBlock(
        (conv1): Conv2d(3, 64, kernel_size=(3, 3), stride=(1, 1), padding=(1, 1))
        (relu1): LeakyReLU(negative_slope=0.2, inplace=True)
        (conv2): Conv2d(64, 64, kernel_size=(3, 3), stride=(1, 1), padding=(1, 1))
        (conv3): Conv2d(67, 9, kernel_size=(3, 3), stride=(1, 1), padding=(1, 1))
      )
      (H): ResBlock(
        (conv1): Conv2d(3, 64, kernel_size=(3, 3), stride=(1, 1), padding=(1, 1))
        (relu1): LeakyReLU(negative_slope=0.2, inplace=True)
        (conv2): Conv2d(64, 64, kernel_size=(3, 3), stride=(1, 1), padding=(1, 1))
        (conv3): Conv2d(67, 9, kernel_size=(3, 3), stride=(1, 1), padding=(1, 1))
      )
    )
    (3): InvBlockExp(
      (F): ResBlock(
        (conv1): Conv2d(9, 64, kernel_size=(3, 3), stride=(1, 1), padding=(1, 1))
        (relu1): LeakyReLU(negative_slope=0.2, inplace=True)
        (conv2): Conv2d(64, 64, kernel_size=(3, 3), stride=(1, 1), padding=(1, 1))
        (conv3): Conv2d(73, 3, kernel_size=(3, 3), stride=(1, 1), padding=(1, 1))
      )
      (G): ResBlock(
        (conv1): Conv2d(3, 64, kernel_size=(3, 3), stride=(1, 1), padding=(1, 1))
        (relu1): LeakyReLU(negative_slope=0.2, inplace=True)
        (conv2): Conv2d(64, 64, kernel_size=(3, 3), stride=(1, 1), padding=(1, 1))
        (conv3): Conv2d(67, 9, kernel_size=(3, 3), stride=(1, 1), padding=(1, 1))
      )
      (H): ResBlock(
        (conv1): Conv2d(3, 64, kernel_size=(3, 3), stride=(1, 1), padding=(1, 1))
        (relu1): LeakyReLU(negative_slope=0.2, inplace=True)
        (conv2): Conv2d(64, 64, kernel_size=(3, 3), stride=(1, 1), padding=(1, 1))
        (conv3): Conv2d(67, 9, kernel_size=(3, 3), stride=(1, 1), padding=(1, 1))
      )
    )
    (4): InvBlockExp(
      (F): ResBlock(
        (conv1): Conv2d(9, 64, kernel_size=(3, 3), stride=(1, 1), padding=(1, 1))
        (relu1): LeakyReLU(negative_slope=0.2, inplace=True)
        (conv2): Conv2d(64, 64, kernel_size=(3, 3), stride=(1, 1), padding=(1, 1))
        (conv3): Conv2d(73, 3, kernel_size=(3, 3), stride=(1, 1), padding=(1, 1))
      )
      (G): ResBlock(
        (conv1): Conv2d(3, 64, kernel_size=(3, 3), stride=(1, 1), padding=(1, 1))
        (relu1): LeakyReLU(negative_slope=0.2, inplace=True)
        (conv2): Conv2d(64, 64, kernel_size=(3, 3), stride=(1, 1), padding=(1, 1))
        (conv3): Conv2d(67, 9, kernel_size=(3, 3), stride=(1, 1), padding=(1, 1))
      )
      (H): ResBlock(
        (conv1): Conv2d(3, 64, kernel_size=(3, 3), stride=(1, 1), padding=(1, 1))
        (relu1): LeakyReLU(negative_slope=0.2, inplace=True)
        (conv2): Conv2d(64, 64, kernel_size=(3, 3), stride=(1, 1), padding=(1, 1))
        (conv3): Conv2d(67, 9, kernel_size=(3, 3), stride=(1, 1), padding=(1, 1))
      )
    )
    (5): InvBlockExp(
      (F): ResBlock(
        (conv1): Conv2d(9, 64, kernel_size=(3, 3), stride=(1, 1), padding=(1, 1))
        (relu1): LeakyReLU(negative_slope=0.2, inplace=True)
        (conv2): Conv2d(64, 64, kernel_size=(3, 3), stride=(1, 1), padding=(1, 1))
        (conv3): Conv2d(73, 3, kernel_size=(3, 3), stride=(1, 1), padding=(1, 1))
      )
      (G): ResBlock(
        (conv1): Conv2d(3, 64, kernel_size=(3, 3), stride=(1, 1), padding=(1, 1))
        (relu1): LeakyReLU(negative_slope=0.2, inplace=True)
        (conv2): Conv2d(64, 64, kernel_size=(3, 3), stride=(1, 1), padding=(1, 1))
        (conv3): Conv2d(67, 9, kernel_size=(3, 3), stride=(1, 1), padding=(1, 1))
      )
      (H): ResBlock(
        (conv1): Conv2d(3, 64, kernel_size=(3, 3), stride=(1, 1), padding=(1, 1))
        (relu1): LeakyReLU(negative_slope=0.2, inplace=True)
        (conv2): Conv2d(64, 64, kernel_size=(3, 3), stride=(1, 1), padding=(1, 1))
        (conv3): Conv2d(67, 9, kernel_size=(3, 3), stride=(1, 1), padding=(1, 1))
      )
    )
    (6): InvBlockExp(
      (F): ResBlock(
        (conv1): Conv2d(9, 64, kernel_size=(3, 3), stride=(1, 1), padding=(1, 1))
        (relu1): LeakyReLU(negative_slope=0.2, inplace=True)
        (conv2): Conv2d(64, 64, kernel_size=(3, 3), stride=(1, 1), padding=(1, 1))
        (conv3): Conv2d(73, 3, kernel_size=(3, 3), stride=(1, 1), padding=(1, 1))
      )
      (G): ResBlock(
        (conv1): Conv2d(3, 64, kernel_size=(3, 3), stride=(1, 1), padding=(1, 1))
        (relu1): LeakyReLU(negative_slope=0.2, inplace=True)
        (conv2): Conv2d(64, 64, kernel_size=(3, 3), stride=(1, 1), padding=(1, 1))
        (conv3): Conv2d(67, 9, kernel_size=(3, 3), stride=(1, 1), padding=(1, 1))
      )
      (H): ResBlock(
        (conv1): Conv2d(3, 64, kernel_size=(3, 3), stride=(1, 1), padding=(1, 1))
        (relu1): LeakyReLU(negative_slope=0.2, inplace=True)
        (conv2): Conv2d(64, 64, kernel_size=(3, 3), stride=(1, 1), padding=(1, 1))
        (conv3): Conv2d(67, 9, kernel_size=(3, 3), stride=(1, 1), padding=(1, 1))
      )
    )
    (7): InvBlockExp(
      (F): ResBlock(
        (conv1): Conv2d(9, 64, kernel_size=(3, 3), stride=(1, 1), padding=(1, 1))
        (relu1): LeakyReLU(negative_slope=0.2, inplace=True)
        (conv2): Conv2d(64, 64, kernel_size=(3, 3), stride=(1, 1), padding=(1, 1))
        (conv3): Conv2d(73, 3, kernel_size=(3, 3), stride=(1, 1), padding=(1, 1))
      )
      (G): ResBlock(
        (conv1): Conv2d(3, 64, kernel_size=(3, 3), stride=(1, 1), padding=(1, 1))
        (relu1): LeakyReLU(negative_slope=0.2, inplace=True)
        (conv2): Conv2d(64, 64, kernel_size=(3, 3), stride=(1, 1), padding=(1, 1))
        (conv3): Conv2d(67, 9, kernel_size=(3, 3), stride=(1, 1), padding=(1, 1))
      )
      (H): ResBlock(
        (conv1): Conv2d(3, 64, kernel_size=(3, 3), stride=(1, 1), padding=(1, 1))
        (relu1): LeakyReLU(negative_slope=0.2, inplace=True)
        (conv2): Conv2d(64, 64, kernel_size=(3, 3), stride=(1, 1), padding=(1, 1))
        (conv3): Conv2d(67, 9, kernel_size=(3, 3), stride=(1, 1), padding=(1, 1))
      )
    )
    (8): InvBlockExp(
      (F): ResBlock(
        (conv1): Conv2d(9, 64, kernel_size=(3, 3), stride=(1, 1), padding=(1, 1))
        (relu1): LeakyReLU(negative_slope=0.2, inplace=True)
        (conv2): Conv2d(64, 64, kernel_size=(3, 3), stride=(1, 1), padding=(1, 1))
        (conv3): Conv2d(73, 3, kernel_size=(3, 3), stride=(1, 1), padding=(1, 1))
      )
      (G): ResBlock(
        (conv1): Conv2d(3, 64, kernel_size=(3, 3), stride=(1, 1), padding=(1, 1))
        (relu1): LeakyReLU(negative_slope=0.2, inplace=True)
        (conv2): Conv2d(64, 64, kernel_size=(3, 3), stride=(1, 1), padding=(1, 1))
        (conv3): Conv2d(67, 9, kernel_size=(3, 3), stride=(1, 1), padding=(1, 1))
      )
      (H): ResBlock(
        (conv1): Conv2d(3, 64, kernel_size=(3, 3), stride=(1, 1), padding=(1, 1))
        (relu1): LeakyReLU(negative_slope=0.2, inplace=True)
        (conv2): Conv2d(64, 64, kernel_size=(3, 3), stride=(1, 1), padding=(1, 1))
        (conv3): Conv2d(67, 9, kernel_size=(3, 3), stride=(1, 1), padding=(1, 1))
      )
    )
    (9): HaarDownsampling()
    (10): InvBlockExp(
      (F): ResBlock(
        (conv1): Conv2d(45, 64, kernel_size=(3, 3), stride=(1, 1), padding=(1, 1))
        (relu1): LeakyReLU(negative_slope=0.2, inplace=True)
        (conv2): Conv2d(64, 64, kernel_size=(3, 3), stride=(1, 1), padding=(1, 1))
        (conv3): Conv2d(109, 3, kernel_size=(3, 3), stride=(1, 1), padding=(1, 1))
      )
      (G): ResBlock(
        (conv1): Conv2d(3, 64, kernel_size=(3, 3), stride=(1, 1), padding=(1, 1))
        (relu1): LeakyReLU(negative_slope=0.2, inplace=True)
        (conv2): Conv2d(64, 64, kernel_size=(3, 3), stride=(1, 1), padding=(1, 1))
        (conv3): Conv2d(67, 45, kernel_size=(3, 3), stride=(1, 1), padding=(1, 1))
      )
      (H): ResBlock(
        (conv1): Conv2d(3, 64, kernel_size=(3, 3), stride=(1, 1), padding=(1, 1))
        (relu1): LeakyReLU(negative_slope=0.2, inplace=True)
        (conv2): Conv2d(64, 64, kernel_size=(3, 3), stride=(1, 1), padding=(1, 1))
        (conv3): Conv2d(67, 45, kernel_size=(3, 3), stride=(1, 1), padding=(1, 1))
      )
    )
    (11): InvBlockExp(
      (F): ResBlock(
        (conv1): Conv2d(45, 64, kernel_size=(3, 3), stride=(1, 1), padding=(1, 1))
        (relu1): LeakyReLU(negative_slope=0.2, inplace=True)
        (conv2): Conv2d(64, 64, kernel_size=(3, 3), stride=(1, 1), padding=(1, 1))
        (conv3): Conv2d(109, 3, kernel_size=(3, 3), stride=(1, 1), padding=(1, 1))
      )
      (G): ResBlock(
        (conv1): Conv2d(3, 64, kernel_size=(3, 3), stride=(1, 1), padding=(1, 1))
        (relu1): LeakyReLU(negative_slope=0.2, inplace=True)
        (conv2): Conv2d(64, 64, kernel_size=(3, 3), stride=(1, 1), padding=(1, 1))
        (conv3): Conv2d(67, 45, kernel_size=(3, 3), stride=(1, 1), padding=(1, 1))
      )
      (H): ResBlock(
        (conv1): Conv2d(3, 64, kernel_size=(3, 3), stride=(1, 1), padding=(1, 1))
        (relu1): LeakyReLU(negative_slope=0.2, inplace=True)
        (conv2): Conv2d(64, 64, kernel_size=(3, 3), stride=(1, 1), padding=(1, 1))
        (conv3): Conv2d(67, 45, kernel_size=(3, 3), stride=(1, 1), padding=(1, 1))
      )
    )
    (12): InvBlockExp(
      (F): ResBlock(
        (conv1): Conv2d(45, 64, kernel_size=(3, 3), stride=(1, 1), padding=(1, 1))
        (relu1): LeakyReLU(negative_slope=0.2, inplace=True)
        (conv2): Conv2d(64, 64, kernel_size=(3, 3), stride=(1, 1), padding=(1, 1))
        (conv3): Conv2d(109, 3, kernel_size=(3, 3), stride=(1, 1), padding=(1, 1))
      )
      (G): ResBlock(
        (conv1): Conv2d(3, 64, kernel_size=(3, 3), stride=(1, 1), padding=(1, 1))
        (relu1): LeakyReLU(negative_slope=0.2, inplace=True)
        (conv2): Conv2d(64, 64, kernel_size=(3, 3), stride=(1, 1), padding=(1, 1))
        (conv3): Conv2d(67, 45, kernel_size=(3, 3), stride=(1, 1), padding=(1, 1))
      )
      (H): ResBlock(
        (conv1): Conv2d(3, 64, kernel_size=(3, 3), stride=(1, 1), padding=(1, 1))
        (relu1): LeakyReLU(negative_slope=0.2, inplace=True)
        (conv2): Conv2d(64, 64, kernel_size=(3, 3), stride=(1, 1), padding=(1, 1))
        (conv3): Conv2d(67, 45, kernel_size=(3, 3), stride=(1, 1), padding=(1, 1))
      )
    )
    (13): InvBlockExp(
      (F): ResBlock(
        (conv1): Conv2d(45, 64, kernel_size=(3, 3), stride=(1, 1), padding=(1, 1))
        (relu1): LeakyReLU(negative_slope=0.2, inplace=True)
        (conv2): Conv2d(64, 64, kernel_size=(3, 3), stride=(1, 1), padding=(1, 1))
        (conv3): Conv2d(109, 3, kernel_size=(3, 3), stride=(1, 1), padding=(1, 1))
      )
      (G): ResBlock(
        (conv1): Conv2d(3, 64, kernel_size=(3, 3), stride=(1, 1), padding=(1, 1))
        (relu1): LeakyReLU(negative_slope=0.2, inplace=True)
        (conv2): Conv2d(64, 64, kernel_size=(3, 3), stride=(1, 1), padding=(1, 1))
        (conv3): Conv2d(67, 45, kernel_size=(3, 3), stride=(1, 1), padding=(1, 1))
      )
      (H): ResBlock(
        (conv1): Conv2d(3, 64, kernel_size=(3, 3), stride=(1, 1), padding=(1, 1))
        (relu1): LeakyReLU(negative_slope=0.2, inplace=True)
        (conv2): Conv2d(64, 64, kernel_size=(3, 3), stride=(1, 1), padding=(1, 1))
        (conv3): Conv2d(67, 45, kernel_size=(3, 3), stride=(1, 1), padding=(1, 1))
      )
    )
    (14): InvBlockExp(
      (F): ResBlock(
        (conv1): Conv2d(45, 64, kernel_size=(3, 3), stride=(1, 1), padding=(1, 1))
        (relu1): LeakyReLU(negative_slope=0.2, inplace=True)
        (conv2): Conv2d(64, 64, kernel_size=(3, 3), stride=(1, 1), padding=(1, 1))
        (conv3): Conv2d(109, 3, kernel_size=(3, 3), stride=(1, 1), padding=(1, 1))
      )
      (G): ResBlock(
        (conv1): Conv2d(3, 64, kernel_size=(3, 3), stride=(1, 1), padding=(1, 1))
        (relu1): LeakyReLU(negative_slope=0.2, inplace=True)
        (conv2): Conv2d(64, 64, kernel_size=(3, 3), stride=(1, 1), padding=(1, 1))
        (conv3): Conv2d(67, 45, kernel_size=(3, 3), stride=(1, 1), padding=(1, 1))
      )
      (H): ResBlock(
        (conv1): Conv2d(3, 64, kernel_size=(3, 3), stride=(1, 1), padding=(1, 1))
        (relu1): LeakyReLU(negative_slope=0.2, inplace=True)
        (conv2): Conv2d(64, 64, kernel_size=(3, 3), stride=(1, 1), padding=(1, 1))
        (conv3): Conv2d(67, 45, kernel_size=(3, 3), stride=(1, 1), padding=(1, 1))
      )
    )
    (15): InvBlockExp(
      (F): ResBlock(
        (conv1): Conv2d(45, 64, kernel_size=(3, 3), stride=(1, 1), padding=(1, 1))
        (relu1): LeakyReLU(negative_slope=0.2, inplace=True)
        (conv2): Conv2d(64, 64, kernel_size=(3, 3), stride=(1, 1), padding=(1, 1))
        (conv3): Conv2d(109, 3, kernel_size=(3, 3), stride=(1, 1), padding=(1, 1))
      )
      (G): ResBlock(
        (conv1): Conv2d(3, 64, kernel_size=(3, 3), stride=(1, 1), padding=(1, 1))
        (relu1): LeakyReLU(negative_slope=0.2, inplace=True)
        (conv2): Conv2d(64, 64, kernel_size=(3, 3), stride=(1, 1), padding=(1, 1))
        (conv3): Conv2d(67, 45, kernel_size=(3, 3), stride=(1, 1), padding=(1, 1))
      )
      (H): ResBlock(
        (conv1): Conv2d(3, 64, kernel_size=(3, 3), stride=(1, 1), padding=(1, 1))
        (relu1): LeakyReLU(negative_slope=0.2, inplace=True)
        (conv2): Conv2d(64, 64, kernel_size=(3, 3), stride=(1, 1), padding=(1, 1))
        (conv3): Conv2d(67, 45, kernel_size=(3, 3), stride=(1, 1), padding=(1, 1))
      )
    )
    (16): InvBlockExp(
      (F): ResBlock(
        (conv1): Conv2d(45, 64, kernel_size=(3, 3), stride=(1, 1), padding=(1, 1))
        (relu1): LeakyReLU(negative_slope=0.2, inplace=True)
        (conv2): Conv2d(64, 64, kernel_size=(3, 3), stride=(1, 1), padding=(1, 1))
        (conv3): Conv2d(109, 3, kernel_size=(3, 3), stride=(1, 1), padding=(1, 1))
      )
      (G): ResBlock(
        (conv1): Conv2d(3, 64, kernel_size=(3, 3), stride=(1, 1), padding=(1, 1))
        (relu1): LeakyReLU(negative_slope=0.2, inplace=True)
        (conv2): Conv2d(64, 64, kernel_size=(3, 3), stride=(1, 1), padding=(1, 1))
        (conv3): Conv2d(67, 45, kernel_size=(3, 3), stride=(1, 1), padding=(1, 1))
      )
      (H): ResBlock(
        (conv1): Conv2d(3, 64, kernel_size=(3, 3), stride=(1, 1), padding=(1, 1))
        (relu1): LeakyReLU(negative_slope=0.2, inplace=True)
        (conv2): Conv2d(64, 64, kernel_size=(3, 3), stride=(1, 1), padding=(1, 1))
        (conv3): Conv2d(67, 45, kernel_size=(3, 3), stride=(1, 1), padding=(1, 1))
      )
    )
    (17): InvBlockExp(
      (F): ResBlock(
        (conv1): Conv2d(45, 64, kernel_size=(3, 3), stride=(1, 1), padding=(1, 1))
        (relu1): LeakyReLU(negative_slope=0.2, inplace=True)
        (conv2): Conv2d(64, 64, kernel_size=(3, 3), stride=(1, 1), padding=(1, 1))
        (conv3): Conv2d(109, 3, kernel_size=(3, 3), stride=(1, 1), padding=(1, 1))
      )
      (G): ResBlock(
        (conv1): Conv2d(3, 64, kernel_size=(3, 3), stride=(1, 1), padding=(1, 1))
        (relu1): LeakyReLU(negative_slope=0.2, inplace=True)
        (conv2): Conv2d(64, 64, kernel_size=(3, 3), stride=(1, 1), padding=(1, 1))
        (conv3): Conv2d(67, 45, kernel_size=(3, 3), stride=(1, 1), padding=(1, 1))
      )
      (H): ResBlock(
        (conv1): Conv2d(3, 64, kernel_size=(3, 3), stride=(1, 1), padding=(1, 1))
        (relu1): LeakyReLU(negative_slope=0.2, inplace=True)
        (conv2): Conv2d(64, 64, kernel_size=(3, 3), stride=(1, 1), padding=(1, 1))
        (conv3): Conv2d(67, 45, kernel_size=(3, 3), stride=(1, 1), padding=(1, 1))
      )
    )
  )
)
21-06-29 20:25:28.436 - WARNING: Params [module.operations.0.haar_weights] will not optimize.
21-06-29 20:25:28.445 - WARNING: Params [module.operations.9.haar_weights] will not optimize.
21-06-29 20:25:28.457 - INFO: Model [InvDN_Model] is created.
21-06-29 20:25:28.457 - INFO: Start training from epoch: 0, iter: 0
